('idx', 'enterprise_4')
('train_ds', <torch.utils.data.dataset.TensorDataset object at 0x30931a590>)
('test_dl', <torch.utils.data.dataloader.DataLoader object at 0x16238d630>)
('local_batch_size', 64)
('loss_func', <function cross_entropy at 0x165c7bd00>)
('network_stability', 1.0)
('net', CombinedModel(
  (glove_model): Sequential(
    (0): Linear(in_features=100, out_features=64, bias=True)
    (1): ReLU()
    (2): Linear(in_features=64, out_features=32, bias=True)
    (3): ReLU()
    (4): Linear(in_features=32, out_features=16, bias=True)
    (5): ReLU()
  )
  (resnet_model): Sequential(
    (0): Conv2d(1, 32, kernel_size=(5, 5), stride=(1, 1), padding=(2, 2))
    (1): MaxPool2d(kernel_size=2, stride=2, padding=0, dilation=1, ceil_mode=False)
    (2): Conv2d(32, 64, kernel_size=(5, 5), stride=(1, 1), padding=(2, 2))
    (3): MaxPool2d(kernel_size=2, stride=2, padding=0, dilation=1, ceil_mode=False)
    (4): Linear(in_features=3136, out_features=512, bias=True)
    (5): Linear(in_features=512, out_features=10, bias=True)
  )
  (cnn_model): Sequential(
    (0): Conv2d(1, 32, kernel_size=(5, 5), stride=(1, 1), padding=(2, 2))
    (1): ReLU()
    (2): MaxPool2d(kernel_size=2, stride=2, padding=0, dilation=1, ceil_mode=False)
    (3): Conv2d(32, 64, kernel_size=(5, 5), stride=(1, 1), padding=(2, 2))
    (4): ReLU()
    (5): MaxPool2d(kernel_size=2, stride=2, padding=0, dilation=1, ceil_mode=False)
    (6): Flatten(start_dim=1, end_dim=-1)
    (7): Linear(in_features=3136, out_features=512, bias=True)
    (8): Linear(in_features=512, out_features=10, bias=True)
    (9): ReLU()
  )
))
('opti', SGD (
Parameter Group 0
    dampening: 0
    differentiable: False
    foreach: None
    fused: None
    lr: 0.01
    maximize: False
    momentum: 0.9
    nesterov: False
    weight_decay: 0
))
('dev', device(type='mps'))
('train_dl', <torch.utils.data.dataloader.DataLoader object at 0x30931a710>)
('local_train_parameters', None)
…
